…
Average actions of items: 23.43330808917499
The number of inters: 990151
The sparsity of the dataset: 99.98855207703342%
Remain Fields: ['session_id', 'item_id', 'timestamp']
Sun 27 Apr 2025 12:38:59 INFO  [Training]: train_batch_size = [4096] train_neg_sample_args: [{'distribution': 'none', 'sample_num': 'none', 'alpha': 'none', 'dynamic': False, 'candidate_num': 0}]
Sun 27 Apr 2025 12:38:59 INFO  [Evaluation]: eval_batch_size = [20480] eval_args: [{'split': {'LS': 'valid_and_test'}, 'order': 'TO', 'group_by': 'user', 'mode': {'valid': 'full', 'test': 'full'}}]
Sun 27 Apr 2025 12:38:59 INFO  GCSAN(
  (item_embedding): Embedding(42255, 64, padding_idx=0)
  (gnn): GNN(
    (linear_edge_in): Linear(in_features=64, out_features=64, bias=True)
    (linear_edge_out): Linear(in_features=64, out_features=64, bias=True)
  )
  (self_attention): TransformerEncoder(
    (layer): ModuleList(
      (0-1): 2 x TransformerLayer(
        (multi_head_attention): MultiHeadAttention(
          (query): Linear(in_features=64, out_features=64, bias=True)
          (key): Linear(in_features=64, out_features=64, bias=True)
          (value): Linear(in_features=64, out_features=64, bias=True)
          (softmax): Softmax(dim=-1)
          (attn_dropout): Dropout(p=0.5, inplace=False)
          (dense): Linear(in_features=64, out_features=64, bias=True)
          (LayerNorm): LayerNorm((64,), eps=1e-12, elementwise_affine=True)
          (out_dropout): Dropout(p=0.5, inplace=False)
        )
        (feed_forward): FeedForward(
          (dense_1): Linear(in_features=64, out_features=256, bias=True)
          (dense_2): Linear(in_features=256, out_features=64, bias=True)
          (LayerNorm): LayerNorm((64,), eps=1e-12, elementwise_affine=True)
          (dropout): Dropout(p=0.5, inplace=False)
        )
      )
    )
  )
  (reg_loss): EmbLoss()
  (loss_fct): CrossEntropyLoss()
)
Trainable parameters: 2849856
Sun 27 Apr 2025 12:38:59 INFO  FLOPs: 5383464.0
Sun 27 Apr 2025 12:41:21 INFO  epoch 0 training [time: 141.67s, train loss: 1304.6454]
Sun 27 Apr 2025 12:41:44 INFO  epoch 0 evaluating [time: 22.80s, valid_score: 0.050100]
…
